Assignment_2/q1/saved_params_40000.npy (npy, 836528 bytes, 1 tensors)

array f8 [104550]
0	0xbfe3607eed1c76a4	-0.6055292731359327
1	0x3fb12b81a4f71293	0.06707010533780026
2	0xbfc2a9aadce6d42f	-0.14580283914770706
3	0x3fe65a2d32bff8c6	0.6985078803261551
4	0xbfe751f34a4e0320	-0.7287537051452979
5	0xbff36df854c8f6a3	-1.2143481552042565
6	0xbfe65db2c3e440a0	-0.6989377809532193
7	0xbfd00d0e9365fd24	-0.2507969321668091
8	0x3fd555fbf46e3913	0.33337305898830144
9	0xbfebc5a2b1226271	-0.8678754291205008
10	0xbfe0c787f633adfa	-0.5243568237905827
11	0xbfca6a9f715bb407	-0.20637887034482125
12	0xbfec624611387936	-0.8869963013019404
13	0x3fe5ff08f37bc00c	0.687382197907938
14	0x3fc642e4b4052131	0.17391642370263008
15	0xbff3c2ddbcb90eb5	-1.2350747463214422
16	0xbfd5de01be0a97d3	-0.3416752200959056
17	0x3ff3a140c59fa026	1.2268684119862967
18	0x3fe32395ec63b906	0.598093949983906
19	0x3ff90fd3637e8203	1.566363705300433
20	0xbfe125e7b2ce2ed9	-0.5358770839970602
21	0x3fe0aaeb5bf1f30c	0.5208641811182999
22	0x3feb629394f616e3	0.855783263149274
23	0x3fb552c8d37eb1ed	0.08329444087457434
24	0xbfe925ca044414de	-0.7858629306143958
25	0xbff7bbe9f2705f94	-1.4833774061462224
26	0xbfc57e9e3ae4ad70	-0.16792657733581562
27	0xbfc3b05daa0dc71a	-0.15381975940140863
28	0xbffc48de04af7c3e	-1.767789858153051
29	0x3fe4202d341956e4	0.6289278047140354
30	0xbf996fab4fc3e96c	-0.024840046637998922
31	0x3fea09454f9f7dd9	0.8136316828858369
32	0xbfebba95dfa1cc12	-0.8665265434086697
33	0x3fb3a9311a83b4e2	0.07680041215253966
34	0xbfebf2b37d13a42a	-0.873376602449871
35	0xbff3064a541c0ca5	-1.1890357289819715
36	0xbfdae5e447d1abd3	-0.4202814771039673
37	0x3fa20f914c865cc0	0.03527502116338033
38	0x3fe20a3d3d36f277	0.5637499042127975
39	0xbfc8a129f5ffe4bf	-0.1924183322114796
40	0x3ff03a547fb2191f	1.014240740596115
41	0xbfd9d0a9b780554a	-0.40336077613877264
42	0x3ff1e94e1886f3b7	1.119459243592457
43	0xbfc8cdfc2de4df79	-0.19378616562766718
44	0xbfca709aaa3064b7	-0.20656140623103678
45	0x3fd58f160d8b9505	0.33685828516748045
46	0x3fcefa99a9f9a012	0.24202271270337455
47	0xbfc4bc1008aa16d3	-0.16198921607081349
48	0xbfe1b9fa9c800632	-0.5539525086061927
49	0x3fb14d3f5af1c3f3	0.06758495302507565
50	0xbfe12b66eae5beb6	-0.5365480983582163
51	0x3fcaf3df9d33c436	0.21056742835892955
52	0x3fe9d460c8df7a4f	0.8071750567722321
53	0x3ff1422ee3aea45e	1.0786579984508289
54	0xbff97f8ff584eb01	-1.5936431494325805
55	0xbfa9794d0b5452f6	-0.04975357783601979
56	0x3fb2323f3d02e6cf	0.0710792087510541
57	0xbfc0d29f58542bb4	-0.1314276868145875
58	0xbfea7cee7f57959e	-0.827750443186847
59	0x3fe2d228fa49056b	0.5881543053039143
60	0xbfd3656249d40541	-0.30306298455987607
61	0x3fc6546da123a3d5	0.17445154541135702
62	0x3fca1eeb4ea151b0	0.20406857814181256
63	0x3fd2b75b580d5999	0.2924412116894018
64	0xbff35442483a7927	-1.208071024076682
65	0xbfe29a8588200266	-0.5813625010196801
66	0x3fe2599644d02f0a	0.5734359115608367
67	0xbffb37fd34b66d6e	-1.7011692103468152
68	0x3fd81db6d887e0df	0.37681361337264535
69	0xbfcd42483caf1ad5	-0.2285852714832887
70	0x3fce5448968f7b26	0.23694712974153126
71	0x3fd20821f570ff56	0.2817463776482233
72	0x3ff8301cfb5efafb	1.511746389310871
73	0x3fed1e4a31e7feb2	0.9099474882823044
74	0xbff4dbb72c4af194	-1.3036414842782493
75	0x3fcb6a3dd5a9b7ed	0.21417973454248287
76	0x3fcbf34503657ea1	0.21836149850695555
77	0xbff72bfd69fa8cb4	-1.448239721278509
78	0xbfdfaa38fc05963f	-0.4947645627165435
79	0xbfe352ba940c8633	-0.6038487330990335
80	0x3fef9b6db4b076d5	0.987723210247817
81	0xbfaa5c7d39b0f686	-0.05148688630332025
82	0xbff8de98535e1a75	-1.5543444878145725
83	0xbffd4b1c70748998	-1.8308376686842163
84	0x3fd7265937dcfc76	0.36171560721772467
85	0x3fe4cfa43c269a08	0.6503468680210185
86	0x3ff6d3ea2186b415	1.426736956559812
87	0xbfe5bdbc9c36da02	-0.6794112254199833
88	0xbfb64c959281120b	-0.08710608317148442
89	0x3fd73389d3ccd41d	0.36252065356831215
90	0xbfed35f3bd9c5dbb	-0.9128359511695899
91	0x3ff0dc22ec6d2b13	1.0537442431838755
92	0x3fc6555e257abcb6	0.17448021726656798
93	0xbfe87c454bf7ff2b	-0.765169762016716
94	0xbfdc6abc6c64f7cd	-0.4440146502055285
95	0x3fe11623aca75ee4	0.5339525577682847
96	0x3fd6c7d168b2a344	0.35594592308421036
97	0xbfe5553c03f60670	-0.6666545941699962
98	0xbfd31e1bb74fb10e	-0.2987126627110833
99	0xbfd1d0aad4193e4b	-0.2783610411906678
100	0xbfc97c6ec0191c8a	-0.19910988216199527
101	0x3fd1414839fef514	0.26960950530686145
102	0xbffc86e30fac0ebc	-1.7829313862029457
103	0xbfda5fe09d5b8c90	-0.41210189215616655
104	0x3fa30d539ab2a384	0.03721104873085948
105	0xbfffaf83f974b101	-1.9803504700058172
106	0xbff0f8cfc4af2007	-1.0607450182888003
107	0x3ff9df123b805515	1.6169607471723044
108	0xbfd6a604ac24472b	-0.35388294993127783
109	0xbfbdeac8c228720f	-0.11686377277550995
110	0xbfd165b1bebfedd1	-0.2718319285192737
111	0x3fc57cd53158c6b3	0.1678720942450603
112	0xbff4646ed19fff7b	-1.274519747588754
113	0xbfff209edae9cae5	-1.9454639960574067
114	0x3fda087e85061790	0.40676844587903194
115	0x3fd6a14ee1fc064e	0.35359546726985946
116	0xbfaa88fa65e65aeb	-0.05182631009954782
117	0xbff66f6dd623c925	-1.402204357608363
118	0xbfe4e8b392eb6cc0	-0.653405940010451
119	0x3fc6126a130ca0a3	0.1724369614614761
120	0xbf982779928b5f27	-0.023588084763871777
121	0x3fcd962fcf569d3d	0.2311458361047957
122	0x3fe735bee6b4c884	0.7253107553463143
123	0xbff34c5ec5cac5d9	-1.2061450697186642
124	0x3fad6ab32424542e	0.05745467964349192
125	0xbfecb8b612083007	-0.8975477554499783
126	0xbfe05779568d21b9	-0.5106779756979939
127	0xbff1d67b6514ca72	-1.114863772247784
128	0xbff01dd36e24a3e4	-1.0072817137208796
129	0xbfcd3cfa1bdfbbd8	-0.2284233699897118
130	0x3fd60beeee7312e6	0.34447835241398506
131	0xbff9b07d28cbbc06	-1.6055881112658894
132	0xbffd29132565aaa0	-1.822528024752195
133	0xbfbaacde126a6e94	-0.10420024823764101
134	0xbff608b8f5783b89	-1.3771295155199559
135	0xbff7ff5a1c75f5ba	-1.499841796088147
136	0x3fec27ee8f2706dc	0.879874496073366
137	0xbfca09ea997911da	-0.2034276246432814
138	0xbff03e0499f41924	-1.0151411069687777
139	0xbfd8762480a6635c	-0.38221085132095367
140	0x3fed7e283cf012b3	0.9216500463667984
141	0x3fea869bb8ca183e	0.8289316758316614
142	0xbfd056eac0ee948d	-0.2553049930668941
143	0x3fe05f0148478892	0.5115972911555835
144	0xbff6f350bb93824c	-1.4344031645961364
145	0xbfd33ba6459eb3af	-0.3005157165414926
146	0x3fba3f333ec5f516	0.10252685816336213
147	0xbfaea90065e20c3c	-0.05988312953652339
148	0x3fd7f8d6ceed28d1	0.3745629330411591
149	0xbfe0cc6f8bcbdfc5	-0.5249555330656156
150	0x3fe70558f96f30e4	0.7194027778400849
151	0x3f914869514faf52	0.016877790057989124
152	0xbfd003c14e661231	-0.2502291932690098
153	0xbfac106dbb349bce	-0.05481284055922907
154	0xbfe49b5261a71e8f	-0.6439601809770056
155	0x4008e8bad99eb4e9	3.113637638240665
156	0xbfedf58345a4942d	-0.9362198219502084
157	0x3fc7c84854d9934e	0.18579963820516315
158	0x3fe4db2b2279591e	0.6517539666481615
159	0xbfd3025cfbbd7696	-0.2970192392730068
160	0x3fd75dc46cba3a45	0.3650981008330841
161	0x3ff08c1c74e0e2ab	1.0342068257870476
162	0x3ff09585ceeeec0c	1.036504562695657
163	0x3fddecc0303a0132	0.46757511815669084
164	0xbff73b3a63c829c2	-1.4519599817018478
165	0xbff9e666ff5fec7f	-1.6187505698751747
166	0x3fba1043501c0942	0.10181065278815019
167	0xbff376fd192c7d4d	-1.216549967131715
168	0x3ff55252abcebe8c	1.3325983725771122
169	0x3fd48e619d185233	0.3211902650957967
170	0xbfde887eec221e86	-0.47708104190721945
171	0x3fc621c417c15862	0.1729054561607795
172	0x3fe4c829c30e0c88	0.64943397614151
173	0x3fd2f6d10d92f9af	0.2963144905624188
174	0xc006f09cf62d3ed9	-2.867486880546363
175	0x3feec0a0df9768b9	0.9610142104168268
176	0x3fcb9be1bd62032d	0.21569463488779075
177	0xbfc2354dbcc0d1db	-0.1422516986509795
178	0xbfe2f1709878979f	-0.5919726350737057
179	0x3faab72e7e96963e	0.05217881484285812
180	0x3fecdd06b4435edb	0.9019807358517612
181	0x3f9ee8d2d3095f08	0.03018502629342293
182	0x3feb1f8d64020ff1	0.8476016000063266
183	0xbfd969b3414256aa	-0.3970764291092147
184	0x3fef742a780f37c2	0.9829304070387865
185	0xbfe9c31547d746c0	-0.8050638583319696
186	0x3ff052ceb0c08fc7	1.0202166466124127
187	0xc00390bdeabc0770	-2.445674737799827
188	0x3fd5c6d598dc1360	0.34026088645651065
189	0x3fda5a37dc10cf40	0.41175648203646986
190	0x3ff6657c266f144e	1.3997766019176825
191	0xbfccedcfa330f80c	-0.2260074183304258
192	0xbfed1b7e2141bbeb	-0.9096060418650017
193	0xbfe1d4994a167308	-0.5572020003342866
194	0xbfab49e2e2dc678a	-0.05329808253573194
195	0x3f903d0e8024523c	0.015857912608298927
196	0xbfaa6c56830ac9b2	-0.05160780286441326
197	0x3fb85c8e6e37b460	0.09516229811534194
198	0x3ff2629a691a92ff	1.1490730386369135
199	0xbfe99157feeae23f	-0.798992154966136
200	0x3fd1ccdb31dc8d4b	0.27812843198099263
201	0xbff19c75a56d1047	-1.1006981336550028
202	0x3fcceb78332766ea	0.22593595979451858
203	0xbff683bced8ce960	-1.407162597590819
204	0xbfe241166f448e31	-0.5704452679823985
205	0x3f2b4a6c14216a50	0.00020821160620950125
206	0x3ff3bfd776b89cb6	1.234336341623743
207	0x3ff8e8a8418b9bde	1.556801086460602
208	0x3ff256ecd8bda3aa	1.1462219683109915
209	0x3fd2323c8b9ea2df	0.28431619295819915
210	0xbfade8396e88c2ce	-0.05841235613150318
211	0xbfe95c9fc4a95937	-0.792556652168776
212	0x3fe79c5a48f192a3	0.7378360199623625
213	0x3ff82e48ea07c911	1.5113000051320038
214	0x3fcbff0d313a407a	0.21872105506600176
215	0xbfe0410af3616b68	-0.5079397920156739
216	0x3fd009cff197ddb4	0.2505988940533499
217	0x3fd431d3865917f4	0.31554115409778594
218	0xbfc7c8f95f2c9734	-0.18582074305703034
219	0xbfd9b0f408f16ea8	-0.4014253699622068
220	0x3fe21f6a071d5bf7	0.5663347376784021
221	0xbfd97195ade11cdb	-0.39755765896229683
222	0xbfecf9cd00f24cfa	-0.9054932611929012
223	0x3fcce5f22cc99477	0.2257673948944647
224	0xbfe466992b35693a	-0.637524208442563
225	0x3fee92eeea606c02	0.955436189429179
226	0xbfd8a15198e1d25b	-0.38484611444372313
227	0x3fe022b93f2c778f	0.5042387231694522
228	0x3fd2e0e23ccedb5f	0.2949758142307725
229	0x3fe30a404770dc4a	0.5950013537720988
230	0x3fd0b4d38527120a	0.2610367584532304
231	0xbfe3e97acc32f258	-0.6222509372960969
232	0xbfe526bb4eee38c5	-0.660977987443197
233	0xbfe8265e7b580234	-0.7546837243135713
234	0xbfe96178e0eb50b4	-0.7931484597161416
235	0xbfe94b5b5abfefc4	-0.7904488346534824
236	0x3fead8d590d5160f	0.8389690235860047
237	0xbfd4045126fcd757	-0.3127634888399959
238	0x3feb0ee4642f9bd5	0.8455678898579843
239	0x3fc80e7cd9a92e91	0.18794212940189373
240	0x3fdf7c9d2fbdb135	0.4919808355541762
241	0xbf5d522b5296bcd9	-0.0017896102020634101
242	0xbfeb08ec0f541415	-0.8448391246207644
243	0xbff7105a72741b41	-1.441492507061142
244	0x3fea3653d566a288	0.8191317718493147
245	0x3fd661faac01b324	0.34973017499469194
246	0x3fdc6f30398a6114	0.44428640002435427
247	0x3fd06df513efed26	0.2567112631511058
248	0x3ffeefdbe5ee850b	1.9335593206126898
249	0xbff59c05dd9ae8fe	-1.350591531414977
250	0x3ff35cd55ead29b9	1.2101644228265356
251	0xbfc591b6ab046a01	-0.16850932455493253
252	0xbfff95e0c899e083	-1.9740913234691397
253	0xbfe682ebdbcd1703	-0.7034816067686908
254	0x3fde63233049c050	0.4748008700908075
255	0x3ff7e83d420bd1e5	1.4941990451744627
