Assignment_2/q1/saved_params_40000.npy (npy, 836528 bytes, 1 tensors)

array f8 [104550]
00000000: 6502 0092 0b5d e3bf ca14 2905 639d c03f
00000010: f8e0 e36e daa7 c8bf 4127 342f 4fc9 e03f
00000020: 0ca9 8433 4b56 ebbf e542 d6ff 7631 f3bf
00000030: 440a 7402 afdc edbf 9bea ed6f 1a60 c3bf
00000040: f5be 7047 697f f03f c930 6c56 ad77 eabf
00000050: 93c0 7d94 38ef d3bf f268 b56f ce04 ebbf
00000060: 1ac8 f39a dbcb ecbf 2b59 5267 87ee e73f
00000070: 4c6c 51d7 079e b83f a830 ae75 ed2a f4bf
00000080: aba3 16cd 52e2 cebf 4aeb 0d9c e365 f43f
00000090: 4fad 9898 1bca e83f 238e f60f aa7d f13f
000000a0: fe93 b25c 10ac ddbf 54d2 525a 2075 d23f
000000b0: b624 3684 4aa0 ea3f 1117 4236 e45b b63f
000000c0: eb18 49e3 a294 eabf 6827 ffe4 f0a5 f8bf
000000d0: dd0d b035 7d05 833f dee1 51a9 938b dabf
000000e0: b992 8dc7 b8d1 fcbf 1e51 eabb d69b e33f
000000f0: 1755 37e6 58a5 bdbf c3d7 b6ae 17e5 eb3f
00000100: a386 3f09 d9d2 e5bf 356a e3a8 191d b43f
00000110: 3e66 309b ccab ecbf 32ec 20a6 5cf7 f3bf
00000120: f612 8aef 705f cfbf 415f a6f3 d60b cabf
00000130: 0f2d da5d 190a e33f a06c 3c42 8fef cfbf
00000140: 011e 7179 38d9 ee3f a012 9ffa 020c d2bf
00000150: 57ce 59af 61cd d33f 59b3 9994 edf7 cfbf
00000160: a99a d7be d830 c7bf b04d a45a c1f4 d83f
00000170: 2d63 d58d 8cec c63f ffec 7211 3b41 bebf
00000180: f7c4 b866 323f dbbf 9e11 02b6 7dd5 753f
00000190: 6ffc 7cac 4ea2 d4bf 1e4c 0867 b279 d03f
000001a0: 0f60 d9de a6f3 e83f 6721 1071 8799 ee3f
000001b0: e55d 7eba 4b13 f8bf 113a a92a dca9 a43f
000001c0: d280 5eb2 754d af3f 6af4 0913 7db0 c0bf
000001d0: 0d3b 46af a688 e7bf 8caf ea13 09e7 d53f
000001e0: 1417 60c2 28a0 b2bf d807 fc28 7fb9 bebf
000001f0: e9d5 877f 94e4 ae3f 5013 e5ee 84dd b23f
00000200: 9035 1b1e b7bb f4bf 2312 6aa6 01b4 e2bf
00000210: ae03 89e8 cf67 e43f fb24 00ad 1612 fcbf
00000220: 11da 9774 694d da3f 2f96 43dd 8b24 c3bf
00000230: 782c a70b 8cf9 ce3f d0f8 34ed 70fb bc3f
00000240: 3445 3f6d b400 f73f 5368 bee5 c8d4 ee3f
00000250: 404a b8a9 d4c8 f3bf 8477 3230 a2e5 c83f
00000260: 1d2a eecd 7d98 9a3f c782 bc6e 3078 f4bf
00000270: 34f2 bd9a 4d21 e1bf eee6 9145 36a9 e2bf
00000280: e2f5 7746 db6c f13f e444 b45c 19c7 903f
00000290: d2c6 121e d050 fcbf 6526 922c 7f07 fcbf
000002a0: 044c ad2d 042a d53f 4695 4f26 dc07 e83f
000002b0: bdd6 876b 2c91 f73f 1628 6bde 5b0f eabf
000002c0: 18f7 282a 8192 bbbf 0a69 fd2e 90a3 d63f
000002d0: 37c9 3c7b 1880 ebbf c917 f187 f1f6 fb3f
000002e0: a255 a312 65d6 c3bf 5a59 4d6e 255f e6bf
000002f0: d384 2b2d 160c debf 1889 1da1 b252 e53f
00000300: 0ac7 7415 5839 e53f 82c9 65e4 fc54 e6bf
00000310: ee89 2fb6 9181 d0bf c9e5 6dbc 336d d4bf
00000320: cf24 0c22 0644 a4bf 2860 d175 788e c93f
00000330: c9d2 b515 4bb7 fcbf 7107 5176 2a1d e4bf
00000340: 7c7c 45ca 0b30 c13f 5734 396e 0ce3 fdbf
00000350: e98f a0b1 78e9 f4bf 09af a683 4baf fa3f
00000360: 5a0e ae45 1080 c0bf ed0a dfd8 15f9 c8bf
00000370: 6bff 795b bd1f 95bf b541 19db 67a4 e53f
00000380: 3844 c8ae 15d0 f2bf e068 371d 6b73 fdbf
00000390: 86e5 15bf b043 d83f 2122 a48c f148 d33f
000003a0: 5cf1 6fe0 c343 893f 0cc6 af25 36fa f5bf
000003b0: eb30 4652 e06f ebbf a658 0c37 ed09 d23f
000003c0: e985 af99 fbde ba3f 0bc7 8887 7b39 da3f
000003d0: bf2b 3073 f628 e83f d7e0 af3a c86d f5bf
000003e0: a263 bb7e ad7c cb3f 5101 3c1a f966 efbf
000003f0: 6c29 359c 2ec7 d1bf 90f2 7075 bcdd f2bf
00000400: 1014 cc5a b607 edbf 512a 843e cdce cabf
00000410: db08 76f0 39fe d63f 1f44 89df a7bf f9bf
00000420: d54d b3a8 9b70 fdbf 4079 9a7e f66e 913f
00000430: 1bd8 b571 4f49 f5bf c108 88ba db8f f8bf
00000440: ac24 6912 c40a f03f 4e36 03a1 07e7 b3bf
00000450: 8cca 0ef3 b147 f1bf 97e5 2e93 a681 d8bf
00000460: 6465 b427 8dd2 ec3f be02 2f5d 671c a13f
00000470: f6ae 6a8c 7fa1 dc3f cdab 289d 15a7 d73f
00000480: c63e 3b57 f311 f6bf 143b 21f3 e9b6 dbbf
00000490: 33db 22c4 5fe8 cebf edab 1ac8 f220 84bf
000004a0: eae8 b384 91a6 d63f 84eb 6f65 4129 debf
000004b0: f60d afe1 4830 e73f 81d4 5a95 4001 a13f
000004c0: 2323 2af6 542a d1bf 0686 02ff f500 b03f
000004d0: 7bf1 7f96 92a6 e7bf e0e9 bc06 50b9 0840
000004e0: 0a22 67cc 7a7f f0bf afbd 36b5 2311 b03f
000004f0: ef0b 7007 8921 f33f 9011 3f79 d703 8cbf
00000500: 7b19 e052 8120 d03f 2b18 fa79 eb0c c23f
00000510: 1629 bc0a be22 ef3f 6949 c054 4161 da3f
00000520: ecfb 39c0 786c f4bf fc9a 860b 7d93 f9bf
00000530: cd88 63cc 250d a23f 35e2 2306 5c72 f3bf
00000540: 45bc c79b 525f f33f d35b d3d6 5b62 c13f
00000550: 0229 2cd5 48ad e5bf 705f b37e 8c70 e5bf
00000560: 729a 3ea2 ea2d e93f 9733 d3cd bce5 d03f
00000570: d1aa bf94 10c1 07c0 ec84 a30f 6c00 f13f
00000580: 2542 cf49 b605 c93f 6828 85b3 8660 b2bf
00000590: 6cda d80f f263 e6bf 2eba a0b2 bb59 8dbf
000005a0: 1633 fbb0 288b ed3f 79e2 ca53 17e9 d03f
000005b0: 15a8 c84e 110b f03f d981 87fd df6b d7bf
000005c0: c13f 9a58 a358 ef3f bd6a 6af3 0dec e5bf
000005d0: 77c1 74ea a770 f03f 46b1 429c 9800 03c0
000005e0: 69a4 bb98 af20 d53f 89ed 1d96 99ea de3f
000005f0: 7813 ba85 b720 f73f d28b 3bfb e320 cf3f
00000600: 0c62 802c e2b8 d6bf c894 e696 d013 dfbf
00000610: 004d bae6 1a8c c3bf 5d79 cec0 7244 bcbf
00000620: 79cc 8c96 b6f9 b83f 35f3 5898 2405 9dbf
00000630: 986c 1c00 2f16 f23f 12f6 3721 8a8f e9bf
00000640: 6638 45fb 63cd e43f ccbe b866 eb77 f2bf
00000650: 985d 1f52 9549 d13f cca7 1694 b19f f5bf
00000660: ec3d bbe0 9cfa cd3f a6c9 833f 9696 a3bf
00000670: 83c5 c055 98bf f13f 3e5e cb5e 921f f83f
00000680: dcfe eb35 770a ef3f f3eb a6a2 7daf 86bf
00000690: b8f5 5c7c 0e16 f1bf b03e caec de10 c43f
000006a0: 5ee4 b64e 7bf1 e53f b824 b3fd 34df f63f
000006b0: 0096 7c46 66c8 d73f 1ba3 dac9 b574 e0bf
000006c0: 7991 cab0 5c33 de3f e408 4a15 6a7f d53f
000006d0: c4be ab14 771e c0bf d216 2c8f 0dc6 c63f
000006e0: 3d88 be7c 7eac e43f ceb2 a5f5 60d4 ca3f
000006f0: 6589 1ef5 7727 f1bf 6bb5 1b61 c795 da3f
00000700: 0e75 262c 632e e1bf 700c e298 13c4 ec3f
00000710: 18b0 d2c9 5e4d c1bf 8b13 c9ce 2202 df3f
00000720: 4290 c006 13e6 d93f 596d 5d8f 5108 de3f
00000730: ed43 5b10 73e8 d03f e576 7b4d df4b e9bf
00000740: 32ce 7e68 64ee e6bf dd23 e141 b868 e4bf
00000750: ad85 f483 2332 ebbf 0de2 9868 faa3 e9bf
00000760: 3241 552b ed62 ee3f f5b4 773e 3a44 cbbf
00000770: b339 a945 2d73 e93f 6a89 0672 584e cc3f
00000780: ad7d 67d6 5b46 df3f 3ca3 6462 e6c8 bc3f
00000790: 3046 ecc9 ce87 e9bf 0739 bc94 238b f8bf
000007a0: eac4 d782 86af e63f 1386 b151 d745 d83f
000007b0: c46f 9b9b 8661 e63f d612 5ca0 bec9 c23f
000007c0: f3f6 8849 5389 fe3f 360a 71a9 c48e f3bf
000007d0: 3ebb 47ab 14e2 f23f ee97 e96d f778 cfbf
000007e0: 81b4 58cb a589 febf 549f db5c ced9 e5bf
000007f0: b2b3 8135 17b2 ca3f f117 7b9d 9453 f93f
-0.6051080562175001 0.12980306388832324 -0.19262247480924777 0.5245738908717855 -0.8542839056219989 -1.1995763772612744 -0.9331889198222787 -0.15137033906269867
1.031106261314503 -0.827109020990542 -0.3114758920774047 -0.8443367177781325 -0.8998849893962444 0.7478672998429706 0.09616135603703063 -1.2604803654567522
-0.24128184331973776 1.2748752685426603 0.7746713619612055 1.0931797622259942 -0.4636269479036058 0.28839882679611617 0.8320667822128118 0.08733965229665965
-0.8306440772219309 -1.540512938040104 0.009287813378256732 -0.4147690919412791 -1.8012016100921484 0.612773291608878 -0.11580424900542528 0.8717153942477512
-0.6819882565143484 0.07856903432131264 -0.8959715872799234 -1.2478910912893864 -0.24510013290650762 -0.20348631760566074 0.5949827988673934 -0.24949827894383692
0.9640161868964584 -0.28198313212150516 0.3094104969415858 -0.24975366359594878 -0.1811781818243692 0.38993867732753085 0.17909390378442805 -0.11818284202574957
-0.42573223143979483 0.005330554064248009 -0.3224064526038494 0.2574277883697408 0.7797426559945978 0.956241341425124 -1.5047108921916046 0.04035842915310551
0.06113784601552798 -0.13038600377686588 -0.7354310439421582 0.34222628540987254 -0.07275633569232937 -0.12001795530889525 0.060337677543355124 0.07369261581795894
-1.2958289314295577 -0.58447344305802 0.6376723806098334 -1.7544161565622847 0.41097484956790803 -0.14955280593783146 0.24199057168002347 0.11321168700394257
1.4376720683543 0.9634747016127768 -1.2365309362109116 0.1945078597390727 0.025972333616247057 -1.2793430638923142 -0.5353153250030744 -0.5831557616031355
1.0890763046912686 0.016384502680982474 -1.7697297262897576 -1.7518302670527188 0.33068947277678284 0.7509594677218636 1.4729427528776988 -0.8143748611557864
-0.1077042320184457 0.3537331065068804 -0.8593866736394266 1.7477889356828078 -0.15498031053600153 -0.6991145281161082 -0.4694877091515767 0.6663449427399284
0.6632500094476381 -0.6978744946375601 -0.2579082755238734 -0.31916516686723334 -0.03958148160570262 0.19966035607171873 -1.7947493408257051 -0.6285602866048362
0.13427874924215988 -1.867931776581164 -1.3069998682558384 1.667796625387327 -0.12890818979586777 -0.1951014813367559 -0.020628889759336227 0.676319053580349
-1.1758019282754173 -1.840678323866591 0.3791314951009429 0.30132712110983745 0.012336283003599284 -1.3735867950566698 -0.8574067694585471 0.2818558728771542
0.10496494772043942 0.40975845561762075 0.7550003289955994 -1.3393022816144844 0.21474236190877344 -0.9813199531927613 -0.27778210882811183 -1.1791348063990519
-0.907191445673222 -0.209436088109515 0.35926674349333404 -1.609290955723061 -1.8399921979770302 0.01702485225416095 -1.3303980294999806 -1.5351216589338466
1.0026283950012767 -0.07774398499460597 -1.0800036901897867 -0.382913249715409 0.9007020736200215 0.03341982853408386 0.44735707008906844 0.36957302424951594
-1.379382458446274 -0.43303917639870915 -0.24146649434052278 -0.009828469020552755 0.3539165302205577 -0.47126803308463416 0.7246441276442386 0.03321267913035176
-0.2682087329817923 0.06251466251207924 -0.73908357042778 3.090484669342217 -1.0311229691016046 0.06276152776876275 1.1956873217138726 -0.013679202449460331
0.25198395818042457 0.14101928192047927 0.9729910096805579 0.412185986294523 -1.2764823445174853 -1.5985079241015105 0.03525655860882324 -1.2154197921610266
1.2107721409954746 0.13581417073757382 -0.6774028934026151 -0.6699888682005462 0.7868550461615327 0.26402206516359555 -2.9692699070923045 1.0626030550850443
0.195486818351598 -0.07178537257019146 -0.6997003850472772 -0.014331308735646333 0.9232371765770917 0.2642267530714331 1.0027020528309596 -0.3659591651794734
0.9795700769918697 -0.6850652460301131 1.027503887027789 -2.375291081223767 0.33011999049501256 0.4830688444123657 1.445487520571275 0.243191239998025
-0.35503439279412485 -0.48558439957043875 -0.15271316782000355 -0.11041943747702505 0.09756032157456386 -0.028339931295920457 1.1304159168564976 -0.7987719200897934
0.6500720889687386 -1.1542772305073639 0.27011616725709464 -1.3514877114016484 0.23421059582913928 -0.03825826192214103 1.109276137325964 1.5077079489618792
0.9700275471841127 -0.011076909567114135 -1.0678849084791704 0.15676485597622536 0.6857277428999955 1.4294938955447787 0.3716064155908896 -0.5142468397581043
0.4718848921277395 0.3359017570402456 -0.12592972287483495 0.17791909685927593 0.6460564075862362 0.209606285042716 -1.072135884759143 0.4153917740175845
-0.536912523489862 0.8989351259227885 -0.13517365317000052 0.4845053691281513 0.40466762217898034 0.46925772667392135 0.26418758961977923 -0.7905117524457778
-0.7166006127285469 -0.6377831732471538 -0.8498704507111846 -0.8012668650545166 0.9495759817455449 -0.21301963854003927 0.7953096733634112 0.22114091460850754
0.488669356707727 0.11244048978973081 -0.7978280967528857 -1.53396947955804 0.7089264445804961 0.37926276185871294 0.6994050063326473 0.14678175764142648
1.9085266945325514 -1.222355520135023 1.1801954928047986 -0.24587910525150342 -1.9086053794119666 -0.6828376592284067 0.20855989563588434 1.5829054023356515
